bea-exp/models/paper_model.pt (torch, 3495 bytes, 1 tensors)

linear.weight f4 [1, 324]
0.7576313 0.7911453 0.14737594 0.049156833 0.6595321 0.12734558 0.30183724 1.0229052
0.37372142 0.49600574 0.40020972 0.931532 0.50968987 0.09036215 0.8996229 0.6897572
-0.15531017 1.167703 -0.08131808 0.70576423 0.23559877 -0.24549247 0.49405387 -0.009793085
0.6061832 -0.39068958 0.63306314 0.50147074 1.3571438 0.8613235 0.58869714 0.47134098
0.70849967 1.0411336 0.7078373 0.525593 0.97769827 0.5561405 0.702286 -0.016843874
-0.40417302 0.50110334 0.45093438 0.5710232 0.5934293 0.54028815 0.27661395 0.6028938
0.6329281 0.23243807 -0.07701661 0.3508794 0.8598973 0.38876584 -0.17126437 -0.16944164
0.9900642 0.04906534 0.6534979 0.16837634 1.1085362 0.06676528 0.46455082 0.9505161
-0.4081266 0.49713275 0.26297957 0.6579963 0.009511381 1.1627266 0.72543746 0.6749238
0.07833252 0.9424573 0.50384337 1.385328 1.0323827 1.0260502 0.35226262 1.210939
1.1774318 0.36218086 -0.5132263 0.5524394 0.75761616 -0.11651279 0.9665794 1.0509982
0.6746362 1.0843391 0.78208435 0.48171625 0.812186 0.49377146 0.36431462 0.4032395
0.18674028 1.3851396 0.67056423 0.49065635 0.8442116 0.64177775 0.36680794 1.359333
0.23953557 1.3172916 0.80648625 1.0616765 0.2076283 0.60279137 0.007409334 -0.00080868934
0.038185894 -0.045647994 0.56606084 -0.04789004 0.5279614 -0.11315864 0.6807893 0.992454
-0.11529013 -0.020794624 0.799897 0.5385859 0.77151734 1.1394597 -0.009821249 1.1926478
0.024383236 0.41858268 0.7380045 0.77927774 0.2487639 -0.59668195 0.70497566 0.16447209
0.0074829487 -0.012248855 0.8099749 1.5546978 0.9631423 0.23645179 0.3940568 0.5769246
-0.26532805 0.2626405 1.254686 0.54470325 -0.022132643 0.47226855 0.7847922 0.08582577
-0.12174639 0.6518248 0.005657362 0.106928006 0.73736316 0.279087 0.97103333 -0.03409109
0.69549435 -0.16293962 0.15058196 0.359001 0.21491596 -0.033188894 0.54988277 0.8765001
1.1171298 0.32463694 0.37172392 0.19041307 0.08223276 0.2852075 0.7159456 0.9294596
0.17157201 0.49184853 0.99956506 0.9729313 0.31177193 0.43766007 0.5561382 1.3596574
-0.068790294 0.67874247 0.45259947 1.1008929 0.96579903 0.82994515 0.684284 0.43266478
0.039591253 -0.49131575 0.8476033 0.82995486 -0.13130511 1.1551628 0.0689606 0.468603
0.99502444 0.6934683 0.3539668 0.41170374 0.6117484 0.14567585 0.66087484 1.8561779
0.4914203 0.9590726 0.45969793 0.46577975 0.32425833 0.71723205 0.39236626 0.9375896
-0.13460815 -0.21492079 0.42422044 0.03748949 0.7524981 -0.24195223 0.7158598 1.1702911
0.57754534 0.9614481 0.8059268 0.50784796 0.66656053 0.7468825 0.2702139 0.85919696
1.0034125 -0.072330534 0.029166698 0.7273128 1.4059876 0.32035318 0.62188673 0.25873503
0.7133546 -0.054262906 0.74211806 0.6304539 0.8206748 0.5546946 0.7433363 0.51204866
-0.06238747 -0.18284988 0.75984365 0.2884741 0.18523332 0.31999862 -0.21636792 0.17651227
00000000: 20f4 413f 8088 4a3f b8e9 163e ad58 493d
00000010: 19d7 283f e166 023e 698a 9a3e 8fee 823f
00000020: 6a58 bf3e 77f4 fd3e 4ae8 cc3e e278 6e3f
00000030: 097b 023f ca0f b93d b04d 663f ee93 303f
00000040: a109 1fbe 4b77 953f 188a a6bd f7ac 343f
00000050: ce40 713e 6162 7bbe a1f4 fc3e 2d73 20bc
00000060: d22e 1b3f 7708 c8be 6d10 223f 6360 003f
00000070: e3b6 ad3f b27f 5c3f dbb4 163f 9b53 f13e
00000080: 3c60 353f de43 853f d334 353f 438d 063f
00000090: 6f4a 7a3f 395f 0e3f 04c9 333f 2afc 89bc
000000a0: c4ef cebe 4f48 003f dfe0 e63e 942e 123f
000000b0: fcea 173f 5350 0a3f 58a0 8d3e 4057 1a3f
000000c0: 9307 223f 3f04 6e3e e2ba 9dbd 77a6 b33e
000000d0: 3b22 5c3f 510c c73e ed5f 2fbe 1c82 2dbe
000000e0: d974 7d3f bdf8 483d a34b 273f d96a 2c3e
000000f0: 84e4 8d3f 3cbc 883d 9bd9 ed3e 0655 733f
00000100: f8f5 d0be 2f88 fe3e 42a5 863e 7272 283f
00000110: a0d5 1b3c 3ad4 943f 45b6 393f cec7 2c3f
00000120: cd6c a03d e244 713f e1fb 003f 6e52 b13f
00000130: 1e25 843f 9d55 833f c45b b43e 0d00 9b3f
00000140: 16b6 963f c56f b93e cc62 03bf ab6c 0d3f
00000150: 22f3 413f 429e eebd bf71 773f 1c87 863f
00000160: f5b4 2c3f a0cb 8a3f ae36 483f 83a3 f63e
00000170: 6ceb 4f3f 9dcf fc3e 7287 ba3e 6875 ce3e
00000180: d838 3f3e 414c b13f 19aa 2b3f 4f37 fb3e
00000190: 401e 583f 8c4b 243f 40ce bb3e a0fe ad3f
000001a0: d048 753e 039d a83f e275 4e3f 04e5 873f
000001b0: 839c 543e 8950 1a3f 00ca f23b 39fe 53ba
000001c0: d068 1c3d 64f9 3abd 5de9 103f 5928 44bd
000001d0: 7a28 073f b8bf e7bd 3548 2e3f 7711 7e3f
000001e0: 3b1d ecbd 7d59 aabc 0dc6 4c3f c4e0 093f
000001f0: 2982 453f d1d9 913f 4ee9 20bc afa8 983f
00000200: 5abf c73c 7850 d63e dded 3c3f bf7e 473f
00000210: f7bb 7e3e 26c0 18bf 4979 343f 5f6b 283e
00000220: 8633 f53b 6caf 48bc 845a 4f3f 5600 c73f
00000230: 7e90 763f 6b20 723e d0c1 c93e 55b1 133f
00000240: 14d9 87be d178 863e 8d99 a03f ac71 0b3f
00000250: 844f b5bc 2fcd f13e 24e8 483f 6cc5 af3d
00000260: 2c56 f9bd fddd 263f 6461 b93b 12fd da3d
00000270: d5c3 3c3f 7ee4 8e3e a495 783f 19a3 0bbd
00000280: eb0b 323f a5d9 26be 2832 1a3e fbce b73e
00000290: ee12 5c3e 14f1 07bd 1ec5 0c3f 5062 603f
000002a0: 1cfe 8e3f d036 a63e 9952 be3e a5fb 423e
000002b0: a669 a83d b806 923e 3648 373f 10f1 6d3f
000002c0: 93b0 2f3e 92d3 fb3e 7fe3 7f3f 0712 793f
000002d0: 92a0 9f3e fb14 e03e 135f 0e3f 4109 ae3f
000002e0: ede1 8cbd 11c2 2d3f 1ebb e73e 0fea 8c3f
000002f0: 9b3e 773f 4977 543f 3c2d 2f3f 3d86 dd3e
00000300: 702a 223d bd8d fbbe 88fc 583f ec77 543f
00000310: d974 06be 60dc 933f 373b 8d3d bbec ef3e
00000320: ecb9 7e3f 2387 313f 233b b53e d5ca d23e
00000330: 8b9b 1c3f 0d2c 153e 182f 293f 3d97 ed3f
00000340: 719b fb3e c885 753f 875d eb3e af7a ee3e
00000350: 3005 a63e 859c 373f 3be4 c83e df05 703f
00000360: b8d6 09be 3214 5cbe 6c33 d93e 948e 193d
00000370: b7a3 403f 53c2 77be 9642 373f 19cc 953f
00000380: 03da 133f 7621 763f 3851 4e3f 5302 023f
00000390: b6a3 2a3f b133 3f3f 7a59 8a3e 55f4 5b3f
000003a0: d26f 803f 0822 94bd 00ef ee3c 2c31 3a3f
000003b0: 67f7 b33f 5505 a43e f833 1f3f eb78 843e
000003c0: 689e 363f c842 5ebd 73fb 3d3f 6d65 213f
000003d0: be17 523f 7700 0e3f 4a4b 3e3f 9f15 033f
000003e0: 018a 7fbd 003d 3bbe 1d85 423f e1b2 933e
000003f0: cead 3d3e dcd6 a33e 8d8f 5dbe a2bf 343e
