conll-exp/models/paper_model.pt (torch, 3175 bytes, 1 tensors)

linear.weight f4 [1, 270]
0.73164594 0.8523505 0.22847332 0.036863036 0.64656603 0.08290472 0.3488523 1.0506675
0.40795305 0.46227363 0.4693893 1.170613 0.51712936 0.08880148 0.9360288 0.69148004
-0.13110091 1.3369364 -0.09376329 0.8813451 0.23334023 -0.19042324 0.5749027 0.010135409
0.6245223 -0.47821856 0.663717 0.5209635 1.3765675 0.8578841 0.71417785 0.7014449
0.79543924 1.0461241 0.73677874 0.5943555 0.966104 0.5890077 0.7708798 -0.050127953
-0.40222436 0.4479789 0.4212171 0.5592548 0.5834047 0.54478925 0.23505466 0.5967021
0.72429425 0.19747071 0.055246588 0.31470212 0.98016834 0.35910538 -0.20147222 -0.17676194
0.977837 0.048786413 0.63014 0.17530961 1.1993271 0.03875323 0.5512813 0.9080806
-0.1891889 0.7543949 0.23556945 0.64632076 0.24045424 1.1582892 0.8309084 0.63050807
0.08153101 1.2070048 0.4983332 1.4258618 1.0367011 1.2955785 0.42564672 1.1211376
1.5057043 0.35465634 -0.55610824 0.5301104 1.000366 0.16593154 1.274035 1.0593905
0.78983396 1.1649619 0.68415886 0.5389099 0.99635077 0.51088357 0.3592901 0.5244752
0.14391178 1.3911549 0.64378804 0.57892597 0.83476883 0.6298918 0.60920024 1.3902998
0.3302505 1.3213811 0.86910963 1.1010853 0.16785221 0.42114684 0.19442402 -0.0016520302
0.5153039 0.8448414 1.230036 0.30910736 0.34950563 0.17312433 0.12505016 0.4023545
0.72623837 0.95496976 0.3250737 0.4918583 1.0235305 0.980015 0.3032846 0.5331338
0.5383332 1.3881955 0.017803216 0.7563919 0.4530192 1.0060662 0.98289853 0.8143403
0.6824042 0.42502245 0.0138578005 -0.15800993 1.0601745 0.8135536 -0.071393386 1.1683202
0.024168706 0.527679 1.0685138 0.7337343 0.34919333 0.50946456 0.61915475 0.13156016
0.6315951 1.9499007 0.45418963 0.93329024 0.57446903 0.5318109 0.45300913 0.67485934
0.4107337 0.9091672 -0.065816745 -0.21271312 0.37202352 -0.013508205 0.7394666 -0.22783642
0.7613883 1.139598 0.61580944 0.92340827 0.84401315 0.80804026 0.6188374 0.8034317
0.30588537 0.89673096 1.0744083 -0.032633364 -0.040590916 0.8803124 1.380614 0.33959258
0.6520542 0.29434836 0.6879968 -0.11567145 0.7660172 0.6118287 0.8111169 0.54380363
0.8055149 0.7198882 -0.11382661 -0.14894037 0.7662125 0.21345802 0.15642412 0.31505194
-0.09323314 0.23702526 0.1257852 0.833093 1.0061365 0.58470327 0.5508874 0.21426564
0.36306712 0.2259018 0.97209764 0.7016777 0.92844623 1.08628 0.2090214 -0.3906134
0.118818805 1.8341755 0.3576631 -0.05842818 1.0395265 0.06260097 0.8119508 0.4684086
1.2274332 0.8594134 1.6667894 1.3078634 0.96395934 0.890043 1.0620794 0.8553863
1.08047 1.051948 0.46653348 0.89918184 1.4631476 0.746035 1.4971594 1.1864063
1.4139845 1.4248247 0.7801463 1.0839913 1.3056813 1.3646171 0.53081757 1.6451888
1.6982348 1.1970671 1.2955419 1.0150367 1.5066102 1.7018098 0.88793075 0.21721984
00000000: 264d 3b3f a433 5a3f e9f4 693e b2fd 163d
00000010: 5a85 253f f3c9 a93d c59c b23e 467c 863f
00000020: 39df d03e 21af ec3e cb53 f03e a6d6 953f
00000030: 9762 043f 8ddd b53d 959f 6f3f d604 313f
00000040: 513f 06be bb20 ab3f f806 c0bd d59f 613f
00000050: bef0 6e3e 4ffe 42be d32c 133f fd0e 263c
00000060: b2e0 1f3f 10d9 f4be 5be9 293f dd5d 053f
00000070: 5d33 b03f 4b9e 5b3f 5cd4 363f e591 333f
00000080: e8a1 4b3f 65e7 853f 889d 3c3f af27 183f
00000090: 9752 773f 35c9 163f 6158 453f f852 4dbd
000000a0: 5af0 cdbe 7e5d e53e c5a9 d73e 532b 0f3f
000000b0: 035a 153f 4f77 0b3f 2bb2 703e 78c1 183f
000000c0: 596b 393f c335 4a3e 3f4a 623d a320 a13e
000000d0: 50ec 7a3f a9dc b73e bc4e 4ebe 1501 35be
000000e0: 8753 7a3f 43d4 473d db50 213f 5d84 333e
000000f0: 8d83 993f b5bb 1e3d c520 0d3f f877 683f
00000100: bcba 41be 0620 413f 1e39 713e 4775 253f
00000110: a339 763e d242 943f 6ab6 543f fa68 213f
00000120: bbf9 a63d 227f 9a3f 8725 ff3e a482 b63f
00000130: 9fb2 843f 84d5 a53f 5eee d93e 7081 8f3f
00000140: ebba c03f 8495 b53e 1c5d 0ebf 51b5 073f
00000150: fe0b 803f f5e9 293e 9413 a33f 1c9a 873f
00000160: 8f32 4a3f 791d 953f 0925 2f3f 00f6 093f
00000170: d810 7f3f 44c9 023f dff4 b73e 0244 063f
00000180: 9c5d 133e 5d11 b23f 4bcf 243f 7e34 143f
00000190: 69b3 553f 9740 213f 8cf4 1b3f 58f5 b13f
000001a0: 9816 a93e 0423 a93f f87d 5e3f 5df0 8c3f
000001b0: 73e1 2b3e 8fa0 d73e 1717 473e ef88 d8ba
000001c0: f5ea 033f 8747 583f d271 9d3f 5243 9e3e
000001d0: 67f2 b23e 8147 313e 260d 003e 6901 ce3e
000001e0: c2ea 393f e678 743f 0f70 a63e dad4 fb3e
000001f0: 0c03 833f 43e2 7a3f 1e48 9b3e 757b 083f
00000200: 34d0 093f 64b0 b13f 0dd8 913c e6a2 413f
00000210: 22f2 e73e c7c6 803f 3d9f 7b3f 9b78 503f
00000220: 0bb2 2e3f 8b9c d93e d40b 633c 5bcd 21be
00000230: ccb3 873f 0c45 503f b236 92bd 848b 953f
00000240: 73fd c53c f915 073f 0fc5 883f 03d6 3b3f
00000250: 78c9 b23e 456c 023f ed80 1e3f b5b7 063e
00000260: 37b0 213f 5996 f93f 8b8b e83e 1cec 6e3f
00000270: 6710 133f c224 083f d0f0 e73e 95c3 2c3f
00000280: b04b d23e 2ebf 683f eeca 86bd 78d1 59be
00000290: de79 be3e 8551 5dbc af4d 3d3f f34d 69be
000002a0: 58ea 423f 59de 913f b0a5 1d3f 7c64 6c3f
000002b0: 3f11 583f badb 4e3f 216c 1e3f b3ad 4d3f
000002c0: 029d 9c3e 2990 653f 3686 893f 90aa 05bd
000002d0: a942 26bd 275c 613f f6b7 b03f 14df ad3e
000002e0: 06ed 263f d4b4 963e 8f20 303f 27e5 ecbd
000002f0: b419 443f cea0 1c3f 5ba5 4f3f b736 0b3f
00000300: 3936 4e3f 984a 383f ed1d e9bd d383 18be
00000310: 8126 443f bd94 5a3e a52d 203e 7d4e a13e
00000320: 04f1 bebd c0b6 723e d6cd 003e 9545 553f
00000330: 15c9 803f 1daf 153f f506 0d3f 7468 5b3e
00000340: efe3 b93e cd52 673e 64db 783f 26a1 333f
00000350: a7ae 6d3f 390b 8b3f b509 563e 7bfe c7be
00000360: 4657 f33d 43c6 ea3f 9e1f b73e 6352 6fbd
00000370: 340f 853f f034 803d 02dc 4f3f 41d3 ef3e
00000380: 881c 9d3f 8402 5c3f 5b59 d53f 1168 a73f
00000390: 0ac6 763f dcd9 633f 38f2 873f 99fa 5a3f
000003a0: d74c 8a3f 3ba6 863f 7add ee3e c830 663f
000003b0: 6c48 bb3f 26fc 3e3f eba2 bf3f 29dc 973f
000003c0: 72fd b43f a860 b63f abb7 473f 3ac0 8a3f
000003d0: 9120 a73f c6ab ae3f a9e3 073f 8c95 d23f
000003e0: c25f d93f 7f39 993f 51d4 a53f b9ec 813f
000003f0: 9ad8 c03f e7d4 d93f 6e4f 633f e16e 5e3e
